…
I1102 15:43:25.366958  7360 net.cpp:322] The NetState phase (0) differed from the phase (1) specified by a rule in layer accuracy
I1102 15:43:25.367271  7360 net.cpp:58] Initializing net from parameters: 
name: "CIFAR10_quick"
state {
  phase: TRAIN
  level: 0
  stage: ""
}
layer {
  name: "cifar"
  type: "Data"
  top: "data"
  top: "label"
  include {
    phase: TRAIN
  }
  transform_param {
    mean_file: "examples/cifar10/mean.binaryproto"
  }
  data_param {
    source: "examples/cifar10/cifar10_train_lmdb"
    batch_size: 100
    backend: LMDB
  }
}
layer {
  name: "conv1"
  type: "Convolution"
  bottom: "data"
  top: "conv1"
  param {
    lr_mult: 1
  }
  param {
    lr_mult: 2
  }
  convolution_param {
    num_output: 32
    pad: 2
    kernel_size: 5
    stride: 1
    weight_filler {
      type: "gaussian"
      std: 0.0001
    }
    bias_filler {
      type: "constant"
    }
  }
}
layer {
  name: "pool1"
  type: "Pooling"
  bottom: "conv1"
  top: "pool1"
  pooling_param {
    pool: MAX
    kernel_size: 3
    stride: 2
  }
}
layer {
  name: "relu1"
  type: "ReLU"
  bottom: "pool1"
  top: "pool1"
}
layer {
  name: "conv2"
  type: "Convolution"
  bottom: "pool1"
  top: "conv2"
  param {
    lr_mult: 1
  }
  param {
    lr_mult: 2
  }
  convolution_param {
    num_output: 32
    pad: 2
    kernel_size: 5
    stride: 1
    weight_filler {
      type: "gaussian"
      std: 0.01
    }
    bias_filler {
      type: "constant"
    }
  }
}
layer {
  name: "relu2"
  type: "ReLU"
  bottom: "conv2"
  top: "conv2"
}
layer {
  name: "pool2"
  type: "Pooling"
  bottom: "conv2"
  top: "pool2"
  pooling_param {
    pool: AVE
    kernel_size: 3
    stride: 2
  }
}
layer {
  name: "conv3"
  type: "Convolution"
  bottom: "pool2"
  top: "conv3"
  param {
    lr_mult: 1
  }
  param {
    lr_mult: 2
  }
  convolution_param {
    num_output: 64
    pad: 2
    kernel_size: 5
    stride: 1
    weight_filler {
      type: "gaussian"
      std: 0.01
    }
    bias_filler {
      type: "constant"
    }
  }
}
layer {
  name: "relu3"
  type: "ReLU"
  bottom: "conv3"
  top: "conv3"
}
layer {
  name: "pool3"
  type: "Pooling"
  bottom: "conv3"
  top: "pool3"
  pooling_param {
    pool: AVE
    kernel_size: 3
    stride: 2
  }
}
layer {
  name: "ip1"
  type: "InnerProduct"
  bottom: "pool3"
  top: "ip1"
  param {
    lr_mult: 1
  }
  param {
    lr_mult: 2
  }
  inner_product_param {
    num_output: 64
    weight_filler {
      type: "gaussian"
      std: 0.1
    }
    bias_filler {
      type: "constant"
    }
  }
}
layer {
  name: "ip2"
  type: "InnerProduct"
  bottom: "ip1"
  top: "ip2"
  param {
    lr_mult: 1
  }
  param {
    lr_mult: 2
  }
  inner_product_param {
    num_output: 10
    weight_filler {
      type: "gaussian"
      std: 0.1
    }
    bias_filler {
      type: "constant"
    }
  }
}
layer {
  name: "loss"
  type: "SoftmaxWithLoss"
  bottom: "ip2"
  bottom: "label"
  top: "loss"
}
layer {
  name: "center_loss"
  type: "CenterLoss"
  bottom: "ip1"
  bottom: "label"
  top: "center_loss"
  loss_weight: 0.01
  param {
    lr_mult: 1
    decay_mult: 0
  }
  center_loss_param {
    num_output: 10
    center_filler {
      type: "xavier"
    }
  }
}
I1102 15:43:25.367879  7360 layer_factory.hpp:77] Creating layer cifar
I1102 15:43:25.394559  7360 net.cpp:100] Creating Layer cifar
I1102 15:43:25.394603  7360 net.cpp:408] cifar -> data
I1102 15:43:25.426610  7360 net.cpp:408] cifar -> label
I1102 15:43:25.426705  7360 data_transformer.cpp:25] Loading mean file from: examples/cifar10/mean.binaryproto
I1102 15:43:25.432333  7361 db_lmdb.cpp:35] Opened lmdb examples/cifar10/cifar10_train_lmdb
I1102 15:43:25.463521  7360 data_layer.cpp:41] output data size: 100,3,32,32
I1102 15:43:25.465946  7360 net.cpp:150] Setting up cifar
I1102 15:43:25.466003  7360 net.cpp:157] Top shape: 100 3 32 32 (307200)
I1102 15:43:25.466015  7360 net.cpp:157] Top shape: 100 (100)
I1102 15:43:25.466022  7360 net.cpp:165] Memory required for data: 1229200
I1102 15:43:25.466038  7360 layer_factory.hpp:77] Creating layer label_cifar_1_split
I1102 15:43:25.466059  7360 net.cpp:100] Creating Layer label_cifar_1_split
I1102 15:43:25.466075  7360 net.cpp:434] label_cifar_1_split <- label
I1102 15:43:25.466107  7360 net.cpp:408] label_cifar_1_split -> label_cifar_1_split_0
I1102 15:43:25.466135  7360 net.cpp:408] label_cifar_1_split -> label_cifar_1_split_1
I1102 15:43:25.466166  7360 net.cpp:150] Setting up label_cifar_1_split
I1102 15:43:25.466176  7360 net.cpp:157] Top shape: 100 (100)
I1102 15:43:25.466187  7360 net.cpp:157] Top shape: 100 (100)
I1102 15:43:25.466193  7360 net.cpp:165] Memory required for data: 1230000
I1102 15:43:25.466200  7360 layer_factory.hpp:77] Creating layer conv1
I1102 15:43:25.466228  7360 net.cpp:100] Creating Layer conv1
I1102 15:43:25.466236  7360 net.cpp:434] conv1 <- data
I1102 15:43:25.466246  7360 net.cpp:408] conv1 -> conv1
I1102 15:43:25.467875  7362 blocking_queue.cpp:50] Waiting for data
I1102 15:43:25.482925  7360 net.cpp:150] Setting up conv1
I1102 15:43:25.482976  7360 net.cpp:157] Top shape: 100 32 32 32 (3276800)
I1102 15:43:25.482988  7360 net.cpp:165] Memory required for data: 14337200
I1102 15:43:25.483027  7360 layer_factory.hpp:77] Creating layer pool1
I1102 15:43:25.483055  7360 net.cpp:100] Creating Layer pool1
I1102 15:43:25.483114  7360 net.cpp:434] pool1 <- conv1
I1102 15:43:25.483172  7360 net.cpp:408] pool1 -> pool1
I1102 15:43:25.483264  7360 net.cpp:150] Setting up pool1
I1102 15:43:25.483322  7360 net.cpp:157] Top shape: 100 32 16 16 (819200)
I1102 15:43:25.483397  7360 net.cpp:165] Memory required for data: 17614000
I1102 15:43:25.483449  7360 layer_factory.hpp:77] Creating layer relu1
I1102 15:43:25.483501  7360 net.cpp:100] Creating Layer relu1
I1102 15:43:25.483548  7360 net.cpp:434] relu1 <- pool1
I1102 15:43:25.483595  7360 net.cpp:395] relu1 -> pool1 (in-place)
I1102 15:43:25.483655  7360 net.cpp:150] Setting up relu1
I1102 15:43:25.483707  7360 net.cpp:157] Top shape: 100 32 16 16 (819200)
I1102 15:43:25.483749  7360 net.cpp:165] Memory required for data: 20890800
I1102 15:43:25.483790  7360 layer_factory.hpp:77] Creating layer conv2
I1102 15:43:25.483851  7360 net.cpp:100] Creating Layer conv2
I1102 15:43:25.483870  7360 net.cpp:434] conv2 <- pool1
I1102 15:43:25.483887  7360 net.cpp:408] conv2 -> conv2
I1102 15:43:25.485304  7360 net.cpp:150] Setting up conv2
I1102 15:43:25.485328  7360 net.cpp:157] Top shape: 100 32 16 16 (819200)
I1102 15:43:25.485338  7360 net.cpp:165] Memory required for data: 24167600
I1102 15:43:25.485363  7360 layer_factory.hpp:77] Creating layer relu2
I1102 15:43:25.485417  7360 net.cpp:100] Creating Layer relu2
I1102 15:43:25.485430  7360 net.cpp:434] relu2 <- conv2
I1102 15:43:25.485445  7360 net.cpp:395] relu2 -> conv2 (in-place)
I1102 15:43:25.485462  7360 net.cpp:150] Setting up relu2
I1102 15:43:25.485482  7360 net.cpp:157] Top shape: 100 32 16 16 (819200)
I1102 15:43:25.485491  7360 net.cpp:165] Memory required for data: 27444400
I1102 15:43:25.485497  7360 layer_factory.hpp:77] Creating layer pool2
I1102 15:43:25.485507  7360 net.cpp:100] Creating Layer pool2
I1102 15:43:25.485513  7360 net.cpp:434] pool2 <- conv2
I1102 15:43:25.485525  7360 net.cpp:408] pool2 -> pool2
I1102 15:43:25.485539  7360 net.cpp:150] Setting up pool2
I1102 15:43:25.485548  7360 net.cpp:157] Top shape: 100 32 8 8 (204800)
I1102 15:43:25.485553  7360 net.cpp:165] Memory required for data: 28263600
I1102 15:43:25.485559  7360 layer_factory.hpp:77] Creating layer conv3
I1102 15:43:25.485599  7360 net.cpp:100] Creating Layer conv3
I1102 15:43:25.485606  7360 net.cpp:434] conv3 <- pool2
I1102 15:43:25.485618  7360 net.cpp:408] conv3 -> conv3
I1102 15:43:25.488337  7360 net.cpp:150] Setting up conv3
I1102 15:43:25.488360  7360 net.cpp:157] Top shape: 100 64 8 8 (409600)
I1102 15:43:25.488366  7360 net.cpp:165] Memory required for data: 29902000
I1102 15:43:25.488385  7360 layer_factory.hpp:77] Creating layer relu3
I1102 15:43:25.488406  7360 net.cpp:100] Creating Layer relu3
I1102 15:43:25.488415  7360 net.cpp:434] relu3 <- conv3
I1102 15:43:25.488425  7360 net.cpp:395] relu3 -> conv3 (in-place)
I1102 15:43:25.488438  7360 net.cpp:150] Setting up relu3
I1102 15:43:25.488446  7360 net.cpp:157] Top shape: 100 64 8 8 (409600)
I1102 15:43:25.488452  7360 net.cpp:165] Memory required for data: 31540400
I1102 15:43:25.488458  7360 layer_factory.hpp:77] Creating layer pool3
I1102 15:43:25.488468  7360 net.cpp:100] Creating Layer pool3
I1102 15:43:25.488474  7360 net.cpp:434] pool3 <- conv3
I1102 15:43:25.488482  7360 net.cpp:408] pool3 -> pool3
I1102 15:43:25.488494  7360 net.cpp:150] Setting up pool3
I1102 15:43:25.488502  7360 net.cpp:157] Top shape: 100 64 4 4 (102400)
I1102 15:43:25.488508  7360 net.cpp:165] Memory required for data: 31950000
I1102 15:43:25.488513  7360 layer_factory.hpp:77] Creating layer ip1
I1102 15:43:25.491199  7360 net.cpp:100] Creating Layer ip1
I1102 15:43:25.491215  7360 net.cpp:434] ip1 <- pool3
I1102 15:43:25.491225  7360 net.cpp:408] ip1 -> ip1
I1102 15:43:25.495082  7360 net.cpp:150] Setting up ip1
I1102 15:43:25.495115  7360 net.cpp:157] Top shape: 100 64 (6400)
I1102 15:43:25.495124  7360 net.cpp:165] Memory required for data: 31975600
I1102 15:43:25.495143  7360 layer_factory.hpp:77] Creating layer ip1_ip1_0_split
I1102 15:43:25.495159  7360 net.cpp:100] Creating Layer ip1_ip1_0_split
I1102 15:43:25.495169  7360 net.cpp:434] ip1_ip1_0_split <- ip1
I1102 15:43:25.495188  7360 net.cpp:408] ip1_ip1_0_split -> ip1_ip1_0_split_0
I1102 15:43:25.495206  7360 net.cpp:408] ip1_ip1_0_split -> ip1_ip1_0_split_1
I1102 15:43:25.495224  7360 net.cpp:150] Setting up ip1_ip1_0_split
I1102 15:43:25.495236  7360 net.cpp:157] Top shape: 100 64 (6400)
I1102 15:43:25.495249  7360 net.cpp:157] Top shape: 100 64 (6400)
I1102 15:43:25.495259  7360 net.cpp:165] Memory required for data: 32026800
I1102 15:43:25.495268  7360 layer_factory.hpp:77] Creating layer ip2
I1102 15:43:25.495287  7360 net.cpp:100] Creating Layer ip2
I1102 15:43:25.495298  7360 net.cpp:434] ip2 <- ip1_ip1_0_split_0
I1102 15:43:25.495312  7360 net.cpp:408] ip2 -> ip2
I1102 15:43:25.495400  7360 net.cpp:150] Setting up ip2
I1102 15:43:25.495420  7360 net.cpp:157] Top shape: 100 10 (1000)
I1102 15:43:25.495430  7360 net.cpp:165] Memory required for data: 32030800
I1102 15:43:25.495453  7360 layer_factory.hpp:77] Creating layer loss
I1102 15:43:25.508190  7360 net.cpp:100] Creating Layer loss
I1102 15:43:25.508214  7360 net.cpp:434] loss <- ip2
I1102 15:43:25.508225  7360 net.cpp:434] loss <- label_cifar_1_split_0
I1102 15:43:25.508235  7360 net.cpp:408] loss -> loss
I1102 15:43:25.508262  7360 layer_factory.hpp:77] Creating layer loss
…
I1102 15:43:25.509268  7360 solver.cpp:181] Creating test net (#0) specified by net file: examples/cifar10/cifar10_center_quick_train_test.prototxt
I1102 15:43:25.509340  7360 net.cpp:322] The NetState phase (1) differed from the phase (0) specified by a rule in layer cifar
I1102 15:43:25.509569  7360 net.cpp:58] Initializing net from parameters: 
name: "CIFAR10_quick"
state {
  phase: TEST
}
layer {
  name: "cifar"
  type: "Data"
  top: "data"
  top: "label"
  include {
    phase: TEST
  }
  transform_param {
    mean_file: "examples/cifar10/mean.binaryproto"
  }
  data_param {
    source: "examples/cifar10/cifar10_test_lmdb"
    batch_size: 100
    backend: LMDB
  }
}
layer {
  name: "conv1"
  type: "Convolution"
  bottom: "data"
  top: "conv1"
  param {
    lr_mult: 1
  }
  param {
    lr_mult: 2
  }
  convolution_param {
    num_output: 32
    pad: 2
    kernel_size: 5
    stride: 1
    weight_filler {
      type: "gaussian"
      std: 0.0001
    }
    bias_filler {
      type: "constant"
    }
  }
}
layer {
  name: "pool1"
  type: "Pooling"
  bottom: "conv1"
  top: "pool1"
  pooling_param {
    pool: MAX
    kernel_size: 3
    stride: 2
  }
}
layer {
  name: "relu1"
  type: "ReLU"
  bottom: "pool1"
  top: "pool1"
}
layer {
  name: "conv2"
  type: "Convolution"
  bottom: "pool1"
  top: "conv2"
  param {
    lr_mult: 1
  }
  param {
    lr_mult: 2
  }
  convolution_param {
    num_output: 32
    pad: 2
    kernel_size: 5
    stride: 1
    weight_filler {
      type: "gaussian"
      std: 0.01
    }
    bias_filler {
      type: "constant"
    }
  }
}
layer {
  name: "relu2"
  type: "ReLU"
  bottom: "conv2"
  top: "conv2"
}
layer {
  name: "pool2"
  type: "Pooling"
  bottom: "conv2"
  top: "pool2"
  pooling_param {
    pool: AVE
    kernel_size: 3
    stride: 2
  }
}
layer {
  name: "conv3"
  type: "Convolution"
  bottom: "pool2"
  top: "conv3"
  param {
    lr_mult: 1
  }
  param {
    lr_mult: 2
  }
  convolution_param {
    num_output: 64
    pad: 2
    kernel_size: 5
    stride: 1
    weight_filler {
      type: "gaussian"
      std: 0.01
    }
    bias_filler {
      type: "constant"
    }
  }
}
layer {
  name: "relu3"
  type: "ReLU"
  bottom: "conv3"
  top: "conv3"
}
layer {
  name: "pool3"
  type: "Pooling"
  bottom: "conv3"
  top: "pool3"
  pooling_param {
    pool: AVE
    kernel_size: 3
    stride: 2
  }
}
layer {
  name: "ip1"
  type: "InnerProduct"
  bottom: "pool3"
  top: "ip1"
  param {
    lr_mult: 1
  }
  param {
    lr_mult: 2
  }
  inner_product_param {
    num_output: 64
    weight_filler {
      type: "gaussian"
      std: 0.1
    }
    bias_filler {
      type: "constant"
    }
  }
}
layer {
  name: "ip2"
  type: "InnerProduct"
  bottom: "ip1"
  top: "ip2"
  param {
    lr_mult: 1
  }
  param {
    lr_mult: 2
  }
  inner_product_param {
    num_output: 10
    weight_filler {
      type: "gaussian"
      std: 0.1
    }
    bias_filler {
      type: "constant"
    }
  }
}
layer {
  name: "accuracy"
  type: "Accuracy"
  bottom: "ip2"
  bottom: "label"
  top: "accuracy"
  include {
    phase: TEST
  }
}
layer {
  name: "loss"
  type: "SoftmaxWithLoss"
  bottom: "ip2"
  bottom: "label"
  top: "loss"
}
layer {
  name: "center_loss"
  type: "CenterLoss"
  bottom: "ip1"
  bottom: "label"
  top: "center_loss"
  loss_weight: 0.01
  param {
    lr_mult: 1
    decay_mult: 0
  }
  center_loss_param {
    num_output: 10
    center_filler {
      type: "xavier"
    }
  }
}
I1102 15:43:25.510825  7360 layer_factory.hpp:77] Creating layer cifar
I1102 15:43:25.511054  7360 net.cpp:100] Creating Layer cifar
I1102 15:43:25.511076  7360 net.cpp:408] cifar -> data
I1102 15:43:25.511101  7360 net.cpp:408] cifar -> label
I1102 15:43:25.511131  7360 data_transformer.cpp:25] Loading mean file from: examples/cifar10/mean.binaryproto
I1102 15:43:25.548671  7363 db_lmdb.cpp:35] Opened lmdb examples/cifar10/cifar10_test_lmdb
I1102 15:43:25.548786  7360 data_layer.cpp:41] output data size: 100,3,32,32
I1102 15:43:25.551565  7360 net.cpp:150] Setting up cifar
I1102 15:43:25.551610  7360 net.cpp:157] Top shape: 100 3 32 32 (307200)
I1102 15:43:25.551627  7360 net.cpp:157] Top shape: 100 (100)
I1102 15:43:25.551638  7360 net.cpp:165] Memory required for data: 1229200
I1102 15:43:25.551653  7360 layer_factory.hpp:77] Creating layer label_cifar_1_split
I1102 15:43:25.551678  7360 net.cpp:100] Creating Layer label_cifar_1_split
I1102 15:43:25.551693  7360 net.cpp:434] label_cifar_1_split <- label
I1102 15:43:25.551710  7360 net.cpp:408] label_cifar_1_split -> label_cifar_1_split_0
I1102 15:43:25.551734  7360 net.cpp:408] label_cifar_1_split -> label_cifar_1_split_1
I1102 15:43:25.551767  7360 net.cpp:408] label_cifar_1_split -> label_cifar_1_split_2
I1102 15:43:25.551791  7360 net.cpp:150] Setting up label_cifar_1_split
I1102 15:43:25.551816  7360 net.cpp:157] Top shape: 100 (100)
I1102 15:43:25.551844  7360 net.cpp:157] Top shape: 100 (100)
I1102 15:43:25.551858  7360 net.cpp:157] Top shape: 100 (100)
I1102 15:43:25.551874  7360 net.cpp:165] Memory required for data: 1230400
I1102 15:43:25.551889  7360 layer_factory.hpp:77] Creating layer conv1
I1102 15:43:25.551923  7360 net.cpp:100] Creating Layer conv1
I1102 15:43:25.551935  7360 net.cpp:434] conv1 <- data
I1102 15:43:25.551954  7360 net.cpp:408] conv1 -> conv1
I1102 15:43:25.552132  7360 net.cpp:150] Setting up conv1
I1102 15:43:25.552150  7360 net.cpp:157] Top shape: 100 32 32 32 (3276800)
I1102 15:43:25.552160  7360 net.cpp:165] Memory required for data: 14337600
I1102 15:43:25.552189  7360 layer_factory.hpp:77] Creating layer pool1
I1102 15:43:25.552208  7360 net.cpp:100] Creating Layer pool1
I1102 15:43:25.552225  7360 net.cpp:434] pool1 <- conv1
I1102 15:43:25.552259  7360 net.cpp:408] pool1 -> pool1
I1102 15:43:25.552294  7360 net.cpp:150] Setting up pool1
I1102 15:43:25.552314  7360 net.cpp:157] Top shape: 100 32 16 16 (819200)
I1102 15:43:25.552325  7360 net.cpp:165] Memory required for data: 17614400
I1102 15:43:25.552335  7360 layer_factory.hpp:77] Creating layer relu1
I1102 15:43:25.552359  7360 net.cpp:100] Creating Layer relu1
I1102 15:43:25.552371  7360 net.cpp:434] relu1 <- pool1
I1102 15:43:25.552389  7360 net.cpp:395] relu1 -> pool1 (in-place)
I1102 15:43:25.552407  7360 net.cpp:150] Setting up relu1
I1102 15:43:25.552428  7360 net.cpp:157] Top shape: 100 32 16 16 (819200)
I1102 15:43:25.552439  7360 net.cpp:165] Memory required for data: 20891200
I1102 15:43:25.552449  7360 layer_factory.hpp:77] Creating layer conv2
I1102 15:43:25.552487  7360 net.cpp:100] Creating Layer conv2
I1102 15:43:25.552502  7360 net.cpp:434] conv2 <- pool1
I1102 15:43:25.552523  7360 net.cpp:408] conv2 -> conv2
I1102 15:43:25.553897  7360 net.cpp:150] Setting up conv2
I1102 15:43:25.553936  7360 net.cpp:157] Top shape: 100 32 16 16 (819200)
I1102 15:43:25.553947  7360 net.cpp:165] Memory required for data: 24168000
I1102 15:43:25.553971  7360 layer_factory.hpp:77] Creating layer relu2
I1102 15:43:25.553987  7360 net.cpp:100] Creating Layer relu2
I1102 15:43:25.554004  7360 net.cpp:434] relu2 <- conv2
I1102 15:43:25.554023  7360 net.cpp:395] relu2 -> conv2 (in-place)
I1102 15:43:25.554041  7360 net.cpp:150] Setting up relu2
I1102 15:43:25.554056  7360 net.cpp:157] Top shape: 100 32 16 16 (819200)
I1102 15:43:25.554066  7360 net.cpp:165] Memory required for data: 27444800
I1102 15:43:25.554076  7360 layer_factory.hpp:77] Creating layer pool2
I1102 15:43:25.554092  7360 net.cpp:100] Creating Layer pool2
I1102 15:43:25.554118  7360 net.cpp:434] pool2 <- conv2
I1102 15:43:25.554137  7360 net.cpp:408] pool2 -> pool2
I1102 15:43:25.554162  7360 net.cpp:150] Setting up pool2
I1102 15:43:25.554198  7360 net.cpp:157] Top shape: 100 32 8 8 (204800)
I1102 15:43:25.554217  7360 net.cpp:165] Memory required for data: 28264000
I1102 15:43:25.554229  7360 layer_factory.hpp:77] Creating layer conv3
I1102 15:43:25.554257  7360 net.cpp:100] Creating Layer conv3
I1102 15:43:25.554270  7360 net.cpp:434] conv3 <- pool2
I1102 15:43:25.554297  7360 net.cpp:408] conv3 -> conv3
I1102 15:43:25.557030  7360 net.cpp:150] Setting up conv3
I1102 15:43:25.557055  7360 net.cpp:157] Top shape: 100 64 8 8 (409600)
I1102 15:43:25.557065  7360 net.cpp:165] Memory required for data: 29902400
I1102 15:43:25.557095  7360 layer_factory.hpp:77] Creating layer relu3
I1102 15:43:25.557122  7360 net.cpp:100] Creating Layer relu3
I1102 15:43:25.557134  7360 net.cpp:434] relu3 <- conv3
I1102 15:43:25.557149  7360 net.cpp:395] relu3 -> conv3 (in-place)
I1102 15:43:25.557168  7360 net.cpp:150] Setting up relu3
I1102 15:43:25.557183  7360 net.cpp:157] Top shape: 100 64 8 8 (409600)
I1102 15:43:25.557193  7360 net.cpp:165] Memory required for data: 31540800
I1102 15:43:25.557202  7360 layer_factory.hpp:77] Creating layer pool3
I1102 15:43:25.557224  7360 net.cpp:100] Creating Layer pool3
I1102 15:43:25.557235  7360 net.cpp:434] pool3 <- conv3
I1102 15:43:25.557257  7360 net.cpp:408] pool3 -> pool3
I1102 15:43:25.557279  7360 net.cpp:150] Setting up pool3
I1102 15:43:25.557294  7360 net.cpp:157] Top shape: 100 64 4 4 (102400)
I1102 15:43:25.557309  7360 net.cpp:165] Memory required for data: 31950400
I1102 15:43:25.557320  7360 layer_factory.hpp:77] Creating layer ip1
I1102 15:43:25.557346  7360 net.cpp:100] Creating Layer ip1
I1102 15:43:25.557358  7360 net.cpp:434] ip1 <- pool3
I1102 15:43:25.557374  7360 net.cpp:408] ip1 -> ip1
I1102 15:43:25.560916  7360 net.cpp:150] Setting up ip1
I1102 15:43:25.561069  7360 net.cpp:157] Top shape: 100 64 (6400)
I1102 15:43:25.561139  7360 net.cpp:165] Memory required for data: 31976000
I1102 15:43:25.561169  7360 layer_factory.hpp:77] Creating layer ip1_ip1_0_split
I1102 15:43:25.561192  7360 net.cpp:100] Creating Layer ip1_ip1_0_split
I1102 15:43:25.561223  7360 net.cpp:434] ip1_ip1_0_split <- ip1
I1102 15:43:25.561249  7360 net.cpp:408] ip1_ip1_0_split -> ip1_ip1_0_split_0
I1102 15:43:25.561280  7360 net.cpp:408] ip1_ip1_0_split -> ip1_ip1_0_split_1
I1102 15:43:25.561306  7360 net.cpp:150] Setting up ip1_ip1_0_split
I1102 15:43:25.561327  7360 net.cpp:157] Top shape: 100 64 (6400)
I1102 15:43:25.561342  7360 net.cpp:157] Top shape: 100 64 (6400)
I1102 15:43:25.561352  7360 net.cpp:165] Memory required for data: 32027200
I1102 15:43:25.561362  7360 layer_factory.hpp:77] Creating layer ip2
I1102 15:43:25.561386  7360 net.cpp:100] Creating Layer ip2
I1102 15:43:25.561398  7360 net.cpp:434] ip2 <- ip1_ip1_0_split_0
I1102 15:43:25.561414  7360 net.cpp:408] ip2 -> ip2
I1102 15:43:25.561496  7360 net.cpp:150] Setting up ip2
I1102 15:43:25.561513  7360 net.cpp:157] Top shape: 100 10 (1000)
I1102 15:43:25.561523  7360 net.cpp:165] Memory required for data: 32031200
I1102 15:43:25.561552  7360 layer_factory.hpp:77] Creating layer ip2_ip2_0_split
I1102 15:43:25.561569  7360 net.cpp:100] Creating Layer ip2_ip2_0_split
I1102 15:43:25.561606  7360 net.cpp:434] ip2_ip2_0_split <- ip2
I1102 15:43:25.561622  7360 net.cpp:408] ip2_ip2_0_split -> ip2_ip2_0_split_0
I1102 15:43:25.561641  7360 net.cpp:408] ip2_ip2_0_split -> ip2_ip2_0_split_1
I1102 15:43:25.561664  7360 net.cpp:150] Setting up ip2_ip2_0_split
I1102 15:43:25.561679  7360 net.cpp:157] Top shape: 100 10 (1000)
I1102 15:43:25.561694  7360 net.cpp:157] Top shape: 100 10 (1000)
I1102 15:43:25.561704  7360 net.cpp:165] Memory required for data: 32039200
I1102 15:43:25.561714  7360 layer_factory.hpp:77] Creating layer accuracy
I1102 15:43:25.562074  7360 net.cpp:100] Creating Layer accuracy
I1102 15:43:25.562147  7360 net.cpp:434] accuracy <- ip2_ip2_0_split_0
I1102 15:43:25.562168  7360 net.cpp:434] accuracy <- label_cifar_1_split_0
I1102 15:43:25.562189  7360 net.cpp:408] accuracy -> accuracy
…
